model/gesture_model.tflite (tflite, 561288 bytes, 10 tensors)

arith.constant f4 [16]
00000000: 6867 86bf b4ea d03f 2db2 25c0 e0d2 fc3f
00000010: 6465 29c0 90f8 dc3f c2dc 0dc0 8f09 0d40
00000020: 8ee8 dfbe c980 08bf faf5 50bf 2c82 fabf
00000030: 4bba 91bf 8088 5c3d 8942 14c0 e9b1 09c0
-1.0500307 1.6321626 -2.589 1.9751854 -2.6468134 1.7263355 -2.216599 2.2037084
-0.43732113 -0.5332151 -0.8162533 -1.9570975 -1.1384977 0.053841114 -2.316561 -2.1514838

arith.constant1 f4 [16, 3, 3, 1]
00000000: 3ecb 4240 2034 2e3f 4ed8 0ec0 bf68 2b40
00000010: 02aa 1dbf a18b b6bf 711d 3940 9466 bdbd
00000020: 46a7 2cc0 5387 7d40 b602 2140 2a1a 4ec0
00000030: d658 32c0 a42d 3abf c6ea 2dc0 61fd 0bc0
00000040: 9b3a d1bf 1522 1d40 c942 e63e e27b 983f
00000050: 6f37 293f 1a55 e43e 56ee ab3f 2f17 0040
00000060: 9057 d1bf b5f1 3cbe 770c 593e ddf0 93bd
00000070: 61b0 a73f 4ccf 7abe 7c05 79bf 3230 fdbe
00000080: 9d21 5a3e 0ea6 dbbf 5bf8 97bf 27df 02c0
00000090: 67ef c53e 5c8e fe3e b0e1 493f 1099 333f
000000a0: 68ee 3bbd 3cdb 8fbb 8b5c b33e b715 dc3f
000000b0: 87f6 423f d4dd 8ec0 07ce b4bf a37c d33f
000000c0: 6034 64bf 87c5 eb39 4be7 2340 c7c4 d33f
000000d0: 0b34 6bc0 4566 423d 2142 2dbf e84a 8dbf
000000e0: ba52 1e40 82f6 b8bd 0a76 11c0 d830 d33f
000000f0: 375d 8fbe 9458 9aba a0d3 9340 fc93 ee3d
00000100: 7580 7ebf f953 c5bf 5f12 ad3f 6100 d3be
00000110: 6150 0cc0 394b 753e 9c5f bbbf 9feb 4abf
00000120: 8eb8 8b40 bb02 a13f 30ca 3140 88ce 2640
00000130: e207 4bc0 6ccd 3fc0 496e 273f ff71 1ac0
00000140: 5632 02c0 d0e2 06be 1f7a 91c0 9def ff3e
00000150: fcf3 6dc0 b5c6 d7bf a894 78c0 eeff 8740
00000160: 2ba0 ab40 1294 b540 b216 91be e76e 0abd
00000170: d5c7 a6bf 5758 a13e 40b5 2fc0 3bfe 9fbf
00000180: 6fa6 2e40 a7a5 1540 ffd3 da3f b0b9 833f
00000190: dfc3 13bd 4cba dd3e fa0c 3b3f 9d1e 69be
000001a0: 9f78 ce3e 06de 2540 2d3a f2be b669 28bf
000001b0: ddd0 a9be 070f 843f 36fc 933f 4fc4 06c0
000001c0: 9bf7 1c3f a4d8 9240 4ed7 6ec0 43d0 27c0
000001d0: 982b 6840 c1fa 2540 f20c 2140 783d 9640
000001e0: 5529 02c0 a9c6 30c0 efe9 0840 bb44 cdbf
000001f0: 008a 1dc0 396d 56c0 bf23 26bd ce49 963e
00000200: 72b2 8d3f 3764 a0bd 4127 893f eff0 f5bc
00000210: 1eb6 97bd 05c2 da3f 178c 6c3e aef5 3a3f
00000220: e5da b0be e939 00bf ff6e 823e 2d69 5abf
00000230: f683 88bf b4b4 8440 5d6a 623f 41b7 973f
3.043655 0.68048286 -2.2319522 2.6782682 -0.61587536 -1.4261361 2.892422 -0.09248081
-2.6977096 3.9613845 2.5157905 -3.220347 -2.786672 -0.7272589 -2.7174544 -2.18734
-1.634601 2.4552052 0.44972828 1.1912806 0.6610021 0.44596177 1.3432109 2.001415
-1.6354847 -0.18451579 0.21196161 -0.072236754 1.3100702 -0.2449314 -0.97273993 -0.49450833
0.21301885 -1.7160051 -1.1872667 -2.0448701 0.38659212 0.49717987 0.78859997 0.7015543
-0.04588166 -0.0043901484 0.35031542 1.7194127 0.7615742 -4.4645786 -1.4125375 1.6522411
-0.8914242 0.00044969862 2.560992 1.6544427 -3.6750515 0.047460813 -0.6767903 -1.1038485
2.4737992 -0.09031393 -2.2728295 1.6499281 -0.28000805 -0.0011775666 4.619583 0.116493195
-0.9941476 -1.5416251 1.3521231 -0.41211227 -2.192406 0.23954476 -1.4638553 -0.7926578
4.3662786 1.2578958 2.7779655 2.6063557 -3.1723561 -2.996913 0.65402657 -2.4132078
-2.0343223 -0.1317246 -4.5461574 0.49987498 -3.7180166 -1.6857516 -3.8840733 4.2499914
5.3633018 5.674325 -0.28337628 -0.03379717 -1.3029734 0.3151271 -2.7454376 -1.249946
2.7289083 2.3382356 1.7095946 1.0291042 -0.03607547 0.43306196 0.73066676 -0.22765584
0.40326402 2.5916762 -0.4731001 -0.657863 -0.33167163 1.0317086 1.1561344 -2.1057317
0.61315316 4.5889454 -3.7318912 -2.6220863 3.6276608 2.5934298 2.516415 4.6950035
-2.0337727 -2.7621253 2.1392782 -1.60366 -2.4615479 -3.3504164 -0.040561434 0.29353184
1.1070082 -0.078316145 1.0715104 -0.030022113 -0.07407783 1.709046 0.23100315 0.7303113
-0.34542003 -0.50088364 0.25475308 -0.85316736 -1.0665271 4.1470585 0.8844355 1.18528

arith.constant5 f4 [28]
00000000: 6ae4 713e 3a36 2440 0c90 543f 3b7d 63bf
00000010: ec25 1c40 110d 6fbf 1ad8 db3f b1e3 453d
00000020: f5a9 2640 f1e7 25bf 2acc 263f 8bc1 993e
00000030: 0543 9e3f 08ed 86bf a5c7 9d3f d5ae c8bf
00000040: 5003 43c0 d5e8 dfbf f13d 4e40 6d06 fc3e
00000050: c972 95c0 e62d c0bf 4ba2 0040 5db4 acbf
00000060: 5659 a4c0 4a99 0940 9081 2ec0 810a 0e3e
0.2362229 2.5658097 0.830323 -0.8886296 2.4398146 -0.9337931 1.7175324 0.048312847
2.6041234 -0.6480704 0.6515528 0.30030474 1.2364203 -1.0541086 1.2326552 -1.5678355
-3.0470772 -1.749293 3.2225306 0.49223652 -4.670262 -1.5014007 2.0099056 -1.3492543
-5.1359053 2.149981 -2.7266579 0.13871194

arith.constant6 f4 [128]
00000000: 0cfd 083a dc8c 173c e9fa 4d3d a185 b0bd
00000010: f72d db3b 66ec c2bc 3d9a e6bd 2cc5 c4bb
00000020: 27cb b5bb 4307 c8bb 8f12 82bd 9c62 23bd
00000030: 09b3 24bd 83b0 09bd 15f4 a4bb a9e8 b0bc
00000040: 0912 14be ebe7 26bd b014 3cbd c3c3 c4bb
00000050: 50c5 c4bb 1758 09bc 24de c8bc db75 fbbb
00000060: b5bf 86bb 90fd d8bb a963 843c 1a46 19bd
00000070: 69a6 14bd 6080 0dbd 617f 6d3c 506c a9bc
00000080: 9fc5 c4bb 449c d7bd f4e1 e0bb bcf9 3ebd
00000090: e844 aebc 4165 67bd e859 d0bc e6c5 c4bb
000000a0: 45c6 c4bb 1a3b 3fbd 919a c4bb 23c4 c4bb
000000b0: f283 d3bc 62fe 94bb 4e1b 953d 35d3 a4bb
000000c0: 92ae 00bd e83a 0cbd 1373 a9bd bc9f dbbc
000000d0: f104 10bd a645 1abd f630 c4bb 2fc5 c4bb
000000e0: c16b c23d e884 e1bb 19cc 1cbd 18c0 a3bc
000000f0: d495 16bd dec7 c4bb d799 24bc e7bb 39be
00000100: f9c3 06bc 8d03 bd3b 8033 7fbd 4287 a6bc
00000110: 6866 4fbd 673b a1bc 61b4 c4bb 28e4 c4bb
00000120: d8c6 c4bb 3bb4 873d 0126 f73b a3eb 11bc
00000130: 13c6 c4bb 8db5 6d3d f600 583c 9b99 0cbd
00000140: 5d3c 803d c996 00bd 69a0 1abd 60c6 c4bb
00000150: 433c c0bb 05c0 9fbd 1361 06bd 54f6 bebb
00000160: 2741 c8bb 210e 1dbd 0f3a ddbb 2ab8 423d
00000170: 2cc9 4dbc bc32 8fbb b4e9 29bd 00e5 e8bb
00000180: c215 39bd 453b e8bc 77c3 c4bb 61c5 c4bb
00000190: 9dce 303d 5966 acbc 5e68 febc f3ab bbbb
000001a0: b59d 56bc 2dbf c4bb 9624 afbb b11f 813d
000001b0: df93 1abd 21d0 cb3d f77f 74bc 65fd b5bb
000001c0: 3f15 2f3e c2c3 c4bb cac2 c4bb ea32 ecbc
000001d0: 7e97 d1bb 02c6 873c ac96 0dbd 3418 b7bc
000001e0: 11f5 15bd aafe dcbb 79c4 c4bb f6f9 27bc
000001f0: f8d3 dcbc ee9f a9bb cec5 c4bb 108d aebb
0.0005225695 0.009249892 0.050288115 -0.08619238 0.006688829 -0.023794364 -0.11259887 -0.00600495
-0.0055478993 -0.0061043813 -0.06351196 -0.039888963 -0.040209804 -0.0336156 -0.0050339797 -0.021595316
-0.14460005 -0.040748518 -0.045918167 -0.006004782 -0.006004967 -0.008382819 -0.024519987 -0.0076739616
-0.0041122087 -0.006622024 0.016160803 -0.03742037 -0.036291514 -0.034546256 0.0144957015 -0.02068153
-0.0060050036 -0.10527852 -0.006862873 -0.046624884 -0.021273091 -0.056493048 -0.025433496 -0.0060050366
-0.006005081 -0.046687223 -0.005999871 -0.0060048266 -0.025819752 -0.0045469264 0.072805986 -0.0050300607
-0.031416483 -0.034235865 -0.08273902 -0.026809566 -0.035160962 -0.03766408 -0.005987282 -0.0060049514
0.09493209 -0.0068822987 -0.03828058 -0.019989058 -0.03676398 -0.0060052713 -0.010046444 -0.18138085
-0.008225434 0.0057682456 -0.062304974 -0.020328168 -0.05063477 -0.019681646 -0.006002948 -0.0060086437
-0.0060051493 0.06626173 0.007542372 -0.008906278 -0.0060050576 0.05803447 0.013183823 -0.034326177
0.062615134 -0.0313938 -0.037750635 -0.0060050935 -0.0058665588 -0.07800297 -0.03280742 -0.0058277044
-0.0061112824 -0.038343553 -0.006751306 0.047538914 -0.01256017 -0.0043700617 -0.041482642 -0.007107377
-0.045186765 -0.028348574 -0.0060047465 -0.0060049747 0.04316579 -0.021044897 -0.031055626 -0.005727285
-0.013099124 -0.0060042352 -0.0053449376 0.06304873 -0.037738677 0.09951807 -0.014923087 -0.0055538886
0.17097948 -0.0060047815 -0.006004666 -0.028832871 -0.006396233 0.01657391 -0.03456752 -0.022350408
-0.036610667 -0.0067442255 -0.0060048667 -0.010252466 -0.026956543 -0.005176536 -0.0060050255 -0.0053268746

arith.constant7 f4 [64]
00000000: d37b cebf 8df3 8cbe 6743 9bbe 93dc 92be
00000010: c5a1 b43e bdc7 46bf 5c7c 17be 9c5f 863d
00000020: 8d8f 52bf 4a00 b0be 2e1b 4dbf 6cbe eebe
00000030: 185a 79be 00f5 7fbf 23aa 6cbf bf81 e0be
00000040: ad5a aebf 999a b4be dcc0 a8bf d20f c8be
00000050: 5596 30bf 5bb2 8abd 0d1f 83bf a1ae c3be
00000060: 1110 4d3e e27d 143e 6e32 83be 4ae9 c4bf
00000070: 62a6 b9be d916 4cbf c4d0 63bf 7aa1 6dbf
00000080: 37e1 45bf ca2b e5be a2f2 44bf 854c e5bf
00000090: 68ef 9fbe ba55 08bf 228c 0fbe 2968 31bf
000000a0: 014a 03bf 5a56 babe ce49 14be a773 a7bf
000000b0: bc23 34bf ad45 d23b 4692 ac3e c193 c4be
000000c0: 0972 f73c 0c49 1fbe 3a7a 8abf 0d6e a83e
000000d0: 359c 5ebe 3e88 41bf 637c 09bf 1997 a63e
000000e0: af19 1abf da3d e2bd ecf8 8e3e 3785 d9be
000000f0: cca6 63be e5c1 fdbe 2a8a 19bf e070 c5be
-1.6131538 -0.27529564 -0.3032486 -0.2868391 0.3527967 -0.77648526 -0.14793533 0.06561205
-0.8225029 -0.3437522 -0.801196 -0.46629655 -0.24350774 -0.99983215 -0.9244711 -0.43848988
-1.3621422 -0.352742 -1.3183856 -0.3907457 -0.6897939 -0.067723 -1.0243851 -0.3821917
0.2002566 0.14501145 -0.25624412 -1.5383694 -0.36259753 -0.7972236 -0.88990426 -0.9282452
-0.77296776 -0.4475997 -0.7693273 -1.7913977 -0.3123734 -0.5325581 -0.140183 -0.6929956
-0.51284796 -0.36394006 -0.14481279 -1.3082169 -0.70367026 0.0064169974 0.33705348 -0.38393977
0.030205743 -0.15555209 -1.081855 0.32896462 -0.21739276 -0.75598514 -0.53705424 0.32537153
-0.6019544 -0.110469535 0.27924287 -0.42484447 -0.22231597 -0.49561992 -0.59976447 -0.3856268

arith.constant8 f4 [32]
00000000: 2dc8 fbbf ec1a b1bf abf4 eabe 801a c83f
00000010: b82b 44bf 4bb3 aebf bd8e 92bf bb10 85bf
00000020: abdc cdbf 0299 593f 00b5 2e3e ce06 97bf
00000030: 93a4 1d40 9810 d9bc 49a9 f43f 9c99 643f
00000040: 36a4 983e 0043 8ebf 8774 0f3f 8c1c 483f
00000050: 70df 86bf b4bb c4be 74f3 8bbf a471 4abe
00000060: 75cf 3a3f cd8f a23d 69cf bf3e a3a6 6e3f
00000070: c6d1 1ebf cfa2 2d3e 4d28 3dbf 7a73 15bf
-1.9670464 -1.3836341 -0.45889792 1.5633087 -0.7662921 -1.3648466 -1.144981 -1.0395731
-1.6082968 0.84999096 0.17061234 -1.1798952 2.4631698 -0.02649717 1.9114162 0.8929689
0.29812783 -1.1114197 0.5603718 0.7816856 -1.0536938 -0.38424456 -1.0933671 -0.19769913
0.72972804 0.07937584 0.3746293 0.9322302 -0.6203884 0.16956638 -0.7388962 -0.5837933

tfl.pseudo_qconst i1 [64, 3, 3, 32]
00000000: cb04 d24f 17fc cee0 e912 2207 f3f1 12f7
00000010: 0635 f650 cdf8 eff2 e1fb 0700 1b2d 3e0d
00000020: d5f2 e8f9 0f02 f2d7 1aff 2708 cd14 0df5
00000030: fd4d d639 d9f6 0901 f9f0 c5ec 1535 3015
00000040: d6ce eaf1 251a 29e1 f8e3 5efe ec15 16ea
00000050: 2b3a 2322 adff 0419 f101 fce2 1933 1607
00000060: 121d 143e ef29 dcf8 0e12 17fe fbce e703
00000070: 2131 2b2a f9a7 1ada eeee 041d 10f3 2fee
00000080: 1d41 eeef 1928 0905 2cff ee0a 07fb f30f
00000090: 1e18 d225 03c8 20d3 fe01 c80f 111d ee2f
000000a0: 3606 fecd fd00 04e4 0409 0603 f00e 0ef6
000000b0: 054b dd0f 9c23 0bd4 ce0b f925 2b23 0339
000000c0: 0ce2 b021 e2fd 2e01 0720 12d6 07ca df00
000000d0: 1afb 11a6 d2ac 44fb e4eb e74c 02a2 3ed0
000000e0: 2511 81dd f2d3 23cf 102e 09e8 25de 02ec
000000f0: e402 f0a5 d5ea 55e5 17ff f229 08cf 130a
-53 4 -46 79 23 -4 -50 -32
-23 18 34 7 -13 -15 18 -9
6 53 -10 80 -51 -8 -17 -14
-31 -5 7 0 27 45 62 13
-43 -14 -24 -7 15 2 -14 -41
26 -1 39 8 -51 20 13 -11
-3 77 -42 57 -39 -10 9 1
-7 -16 -59 -20 21 53 48 21
-42 -50 -22 -15 37 26 41 -31
-8 -29 94 -2 -20 21 22 -22
43 58 35 34 -83 -1 4 25
-15 1 -4 -30 25 51 22 7
18 29 20 62 -17 41 -36 -8
14 18 23 -2 -5 -50 -25 3
33 49 43 42 -7 -89 26 -38
-18 -18 4 29 16 -13 47 -18
29 65 -18 -17 25 40 9 5
44 -1 -18 10 7 -5 -13 15
30 24 -46 37 3 -56 32 -45
-2 1 -56 15 17 29 -18 47
54 6 -2 -51 -3 0 4 -28
4 9 6 3 -16 14 14 -10
5 75 -35 15 -100 35 11 -44
-50 11 -7 37 43 35 3 57
12 -30 -80 33 -30 -3 46 1
7 32 18 -42 7 -54 -33 0
26 -5 17 -90 -46 -84 68 -5
-28 -21 -25 76 2 -94 62 -48
37 17 -127 -35 -14 -45 35 -49
16 46 9 -24 37 -34 2 -20
-28 2 -16 -91 -43 -22 85 -27
23 -1 -14 41 8 -49 19 10

tfl.pseudo_qconst1 i1 [32, 3, 3, 16]
00000000: 5819 f30d 17ed 163f 2813 f6ed 0d81 16f3
00000010: ef33 1e37 121e 323c b4fb eb18 12ef 1707
00000020: 10f1 2921 3820 44c4 0529 e33c 5fe2 2e12
00000030: 690c 352c 260c 3243 3a23 2939 1518 1437
00000040: c7f6 442d 4d3b 5520 0619 0a11 0a22 2436
00000050: 19d0 5704 4545 66e6 0717 f62d 3537 5744
00000060: 45d9 15f3 fff9 0406 31df 2717 feef fb28
00000070: 16dc 21f5 1724 1605 efbe 09ef 0de6 1702
00000080: 12d4 190c f618 dded ffa5 e501 0bfe 23f9
00000090: f6fd 21fb 0bb8 00e9 40fb d725 e843 0bf9
000000a0: f6fc fd16 11b7 f5f0 31ec 0820 115f 19eb
000000b0: cfe5 251c 27c6 0be0 46ec f905 fa6b ff12
000000c0: 0337 042c 1efa 1e2a 090d c844 ea14 3629
000000d0: 040d 0c22 37f8 2e30 252a cc04 0c19 1726
000000e0: f00f 2446 1c28 1830 ebf6 043d 0118 1325
000000f0: e30e 1b28 f021 f207 edaa b6f7 20ee 07f4
88 25 -13 13 23 -19 22 63
40 19 -10 -19 13 -127 22 -13
-17 51 30 55 18 30 50 60
-76 -5 -21 24 18 -17 23 7
16 -15 41 33 56 32 68 -60
5 41 -29 60 95 -30 46 18
105 12 53 44 38 12 50 67
58 35 41 57 21 24 20 55
-57 -10 68 45 77 59 85 32
6 25 10 17 10 34 36 54
25 -48 87 4 69 69 102 -26
7 23 -10 45 53 55 87 68
69 -39 21 -13 -1 -7 4 6
49 -33 39 23 -2 -17 -5 40
22 -36 33 -11 23 36 22 5
-17 -66 9 -17 13 -26 23 2
18 -44 25 12 -10 24 -35 -19
-1 -91 -27 1 11 -2 35 -7
-10 -3 33 -5 11 -72 0 -23
64 -5 -41 37 -24 67 11 -7
-10 -4 -3 22 17 -73 -11 -16
49 -20 8 32 17 95 25 -21
-49 -27 37 28 39 -58 11 -32
70 -20 -7 5 -6 107 -1 18
3 55 4 44 30 -6 30 42
9 13 -56 68 -22 20 54 41
4 13 12 34 55 -8 46 48
37 42 -52 4 12 25 23 38
-16 15 36 70 28 40 24 48
-21 -10 4 61 1 24 19 37
-29 14 27 40 -16 33 -14 7
-19 -86 -74 -9 32 -18 7 -12

tfl.pseudo_qconst2 i1 [28, 128]
00000000: 02fc ef01 02fe e4fa fbfc dbfc fdfd fef9
00000010: 0005 a3fb fe02 0302 0203 08ff ffff 0002
00000020: fcb9 fbfe e105 0106 05f9 0501 fafc 02fe
00000030: fa00 8102 ff02 fb05 ea01 00ff fefc 00e5
00000040: fd04 e9e5 d4ed f903 00e7 0305 ff01 05fa
00000050: f003 0601 0406 fd04 faf9 fa04 06fc 0005
00000060: fc03 fbfa 06fc f4fb 00fc 04a2 faf2 fa04
00000070: 0602 fdfc 02ce 0205 03fd fc05 01ff 05ff
00000080: 0201 06e1 fc00 e2ff 0403 00fd 05fd 0302
00000090: 81fe b4fb 01fc fcff fd02 03fc fcfd fb00
000000a0: fbac fffd 01e3 fdfe fe02 fb01 0405 9404
000000b0: 0105 01fc 00fe fdfd 04fb f9fe fdfc 03d4
000000c0: 05e5 cbda e7f6 fe03 fc01 0102 fdff 04fb
000000d0: ef02 0002 0205 fc02 fd00 fd02 0300 0201
000000e0: 0603 01fb 02fc f0fd 00fd 03d6 04f1 fefc
000000f0: 04fb fe05 fed0 fdfd fd03 fbfe fc00 fcfe
2 -4 -17 1 2 -2 -28 -6
-5 -4 -37 -4 -3 -3 -2 -7
0 5 -93 -5 -2 2 3 2
2 3 8 -1 -1 -1 0 2
-4 -71 -5 -2 -31 5 1 6
5 -7 5 1 -6 -4 2 -2
-6 0 -127 2 -1 2 -5 5
-22 1 0 -1 -2 -4 0 -27
-3 4 -23 -27 -44 -19 -7 3
0 -25 3 5 -1 1 5 -6
-16 3 6 1 4 6 -3 4
-6 -7 -6 4 6 -4 0 5
-4 3 -5 -6 6 -4 -12 -5
0 -4 4 -94 -6 -14 -6 4
6 2 -3 -4 2 -50 2 5
3 -3 -4 5 1 -1 5 -1
2 1 6 -31 -4 0 -30 -1
4 3 0 -3 5 -3 3 2
-127 -2 -76 -5 1 -4 -4 -1
-3 2 3 -4 -4 -3 -5 0
-5 -84 -1 -3 1 -29 -3 -2
-2 2 -5 1 4 5 -108 4
1 5 1 -4 0 -2 -3 -3
4 -5 -7 -2 -3 -4 3 -44
5 -27 -53 -38 -25 -10 -2 3
-4 1 1 2 -3 -1 4 -5
-17 2 0 2 2 5 -4 2
-3 0 -3 2 3 0 2 1
6 3 1 -5 2 -4 -16 -3
0 -3 3 -42 4 -15 -2 -4
4 -5 -2 5 -2 -48 -3 -3
-3 3 -5 -2 -4 0 -4 -2

tfl.pseudo_qconst3 i1 [128, 4096]
00000000: 2b0c 3eab d9e4 fecd 45aa 324d c916 c6f3
00000010: 4fd3 d647 1930 fc1a c2e2 fd45 2bb4 19c9
00000020: e6dd 07e7 41f9 f6b4 40b1 f700 e53f 0697
00000030: 2b2c cde0 3943 d7b3 bdde 46b4 e1af bbe8
00000040: aef3 ea27 34f0 c3de 312b e2f8 0db4 be03
00000050: 2c22 fc10 15b2 36fb d651 a1d2 aecd b29f
00000060: c030 4cf2 4122 20ce 0b32 4912 3b17 e20a
00000070: c73e f523 c91c bfad c419 4203 496c a8ea
00000080: 2206 2540 192f e1be 2aed ada9 d2bd c715
00000090: fe22 0e37 21c7 24a4 16fe 3aee c83f 3cd8
000000a0: 1832 1c11 1ee4 ffca 16fe 3c14 0e38 00fa
000000b0: e6b4 0ac2 e614 3dd7 47e3 a5dc ec38 090b
000000c0: ef48 c5ac 2bbb d456 0fa5 d5a7 3bdd f844
000000d0: e1d8 c1ed 5509 1d48 aa71 b9f9 1e56 05ce
000000e0: edd3 fdd9 0c29 3c1a d2bf 48a8 15dd 27d2
000000f0: 3f1b 1dca b42c a733 2ece e030 b4c9 9c2c
43 12 62 -85 -39 -28 -2 -51
69 -86 50 77 -55 22 -58 -13
79 -45 -42 71 25 48 -4 26
-62 -30 -3 69 43 -76 25 -55
-26 -35 7 -25 65 -7 -10 -76
64 -79 -9 0 -27 63 6 -105
43 44 -51 -32 57 67 -41 -77
-67 -34 70 -76 -31 -81 -69 -24
-82 -13 -22 39 52 -16 -61 -34
49 43 -30 -8 13 -76 -66 3
44 34 -4 16 21 -78 54 -5
-42 81 -95 -46 -82 -51 -78 -97
-64 48 76 -14 65 34 32 -50
11 50 73 18 59 23 -30 10
-57 62 -11 35 -55 28 -65 -83
-60 25 66 3 73 108 -88 -22
34 6 37 64 25 47 -31 -66
42 -19 -83 -87 -46 -67 -57 21
-2 34 14 55 33 -57 36 -92
22 -2 58 -18 -56 63 60 -40
24 50 28 17 30 -28 -1 -54
22 -2 60 20 14 56 0 -6
-26 -76 10 -62 -26 20 61 -41
71 -29 -91 -36 -20 56 9 11
-17 72 -59 -84 43 -69 -44 86
15 -91 -43 -89 59 -35 -8 68
-31 -40 -63 -19 85 9 29 72
-86 113 -71 -7 30 86 5 -50
-19 -45 -3 -39 12 41 60 26
-46 -65 72 -88 21 -35 39 -46
63 27 29 -54 -76 44 -89 51
46 -50 -32 48 -76 -55 -100 44
